checkpoints/epoch=4-step=3125.ckpt (torch, 42583 bytes, 18 tensors)

model.to_hidden.weight f4 [40, 24]
0	0xbe62a366	-0.22132644
1	0x3e877bdf	0.26461694
2	0xbd3be64d	-0.04587393
3	0x3da03037	0.07821696
4	0xbd23b8b5	-0.039971072
5	0xbab1147f	-0.0013510137
6	0xbcaf1d88	-0.021376386
7	0x3e6f66d8	0.23379076
8	0x3e591a9d	0.21201558
9	0x3e253913	0.16135053
10	0x3e4d9020	0.2007451
11	0xbd8ff4c7	-0.070291094
12	0x3de842dc	0.113408774
13	0xbd61d11a	-0.055131055
14	0x3d2ccb40	0.04218602
15	0x3e08f633	0.13375168
16	0x3df639d8	0.120227516
17	0xbe00efd7	-0.12591492
18	0xbdac341a	-0.08408375
19	0xbcbadf12	-0.022811446
20	0x3e21f806	0.1581727
21	0x3c3e18b5	0.01160257
22	0xbe1bf65b	-0.15230696
23	0xbeb9deff	-0.36302945
24	0x3df99c01	0.121879585
25	0xbdbda094	-0.092591435
26	0xbdb325c8	-0.087474406
27	0xbe412e8a	-0.1886541
28	0x3dd5650f	0.10419666
29	0xbe368de0	-0.17827559
30	0x3e067adf	0.13132809
31	0xbe87817a	-0.2646597
32	0xbe99d090	-0.30041933
33	0xbbdf74e9	-0.0068193567
34	0xbd1a8111	-0.037720744
35	0xbe7dd8a5	-0.24789675
36	0xbe157eea	-0.14599195
37	0xbc12d6fd	-0.00896239
38	0x3e5030c9	0.2033111
39	0x3db0e355	0.0863711
40	0xbd920703	-0.07130244
41	0xbd750703	-0.05982114
42	0xbbc7aeb1	-0.006093823
43	0xbcba8e5c	-0.02277296
44	0xbdb450a3	-0.08804443
45	0xbe538ed8	-0.2065996
46	0x3eb51df7	0.35374424
47	0x3ea31403	0.31851205
48	0xbd95dd9b	-0.073176585
49	0xbdcb5014	-0.09927383
50	0xbe08d925	-0.13364084
51	0x3dabadc0	0.083827496
52	0x3c966e0c	0.018363021
53	0x3e0e97f6	0.13925156
54	0xbdeed962	-0.11662556
55	0xbe1c41ea	-0.15259519
56	0x3d47e7b3	0.04880495
57	0x3da0e3a6	0.078559205
58	0x3aff12d8	0.0019460572
59	0x3e538ce3	0.20659213
60	0x3cdc22b7	0.026872022
61	0x3e1846dd	0.14870782
62	0xbc40570e	-0.011739505
63	0x3e691a30	0.22763896
64	0xbc12dc23	-0.0089636175
65	0x3baacae2	0.005212174
66	0x3df567a6	0.1198266
67	0xbe5b25c6	-0.21401128
68	0xbe014ea6	-0.12627658
69	0xbdc9450f	-0.09827625
70	0x3cfb8d93	0.030707156
71	0xbdb2d660	-0.08732295
72	0xbd92c2a5	-0.07166032
73	0xbea3abba	-0.31966954
74	0x3d884ab1	0.06654871
75	0xbe1de13b	-0.1541795
76	0x3d9cb7ce	0.076522455
77	0x3dd9b90e	0.106309995
78	0xbe57faad	-0.21091719
79	0x3e1cdcb4	0.15318567
80	0xbe7d66d7	-0.24746262
81	0x3e1729e0	0.14762068
82	0xbdaee45d	-0.085396506
83	0x3e076770	0.13223052
84	0xbdc5adb7	-0.09652274
85	0xbd0450bb	-0.032303553
86	0x3dc9353e	0.09824608
87	0xbe5d8940	-0.21634388
88	0xbdf13ce9	-0.11779196
89	0xbde1a42d	-0.11017642
90	0x3d8f34e9	0.06992514
91	0x3c62726c	0.013821226
92	0x3d8ab0f6	0.06772034
93	0x3db86260	0.090031385
94	0x3e386a8c	0.18009394
95	0x3e75ca78	0.24003017
96	0xbdf285f4	-0.11841956
97	0x3e910845	0.28326622
98	0xbddec94d	-0.10878239
99	0x3e2a1ce1	0.16612579
100	0x3de10e1d	0.1098902
101	0xbc27d7cf	-0.010244324
102	0x3e5e0394	0.21681052
103	0x3c81f010	0.015861541
104	0x3df91286	0.12161736
105	0x3e48dd1a	0.19615594
106	0xbc95ae5a	-0.018271614
107	0x3e15afa0	0.14617777
108	0xbe381228	-0.17975676
109	0x3e232a72	0.1593416
110	0xbe0ea5ac	-0.13930386
111	0x3d7a3b92	0.061091967
112	0x3c313f29	0.010818281
113	0x3e6c56ea	0.2308003
114	0x3e30f02c	0.17279118
115	0x3e46be07	0.19408427
116	0xbd367e15	-0.044553835
117	0x3e0d959c	0.13826603
118	0xbde8414a	-0.11340578
119	0xbef7079c	-0.48247993
120	0xbda925fe	-0.082591996
121	0x3d8d1640	0.068890095
122	0x3e66e965	0.2254997
123	0xbe1c38d2	-0.1525605
124	0xbd5b3511	-0.053517405
125	0xbdcedf7d	-0.10101221
126	0x3d241eb3	0.04006834
127	0x3c8c1216	0.017098468
128	0x3dea89b8	0.11452049
129	0xbda28fa8	-0.079375565
130	0xbda0ee0e	-0.07857905
131	0x3ddddcaa	0.10833104
132	0xbca42dee	-0.020041432
133	0x3d8f3ce9	0.069940396
134	0x3dbab062	0.091156736
135	0x3e328d81	0.17436792
136	0xbe5f5ec8	-0.218135
137	0xbe03145c	-0.12800735
138	0x3e3460f3	0.17615108
139	0xbde395af	-0.11112534
140	0x3e63522c	0.22199315
141	0xbc288cea	-0.010287503
142	0x3e167cfa	0.14696112
143	0x3ec8561f	0.39128205
144	0xbd562eb2	-0.052290626
145	0x3dd2acf1	0.10286892
146	0xbd9cfac3	-0.076650165
147	0xbd4591cc	-0.048234746
148	0xbd353ce2	-0.044247515
149	0xbe966912	-0.29377037
150	0x3e69a4e7	0.22816812
151	0xbe93159c	-0.28727424
152	0x3dc9b41c	0.09848806
153	0x3dbd3d7b	0.09240242
154	0x3dddc8a4	0.10829285
155	0xbddf105c	-0.10891792
156	0x3d979778	0.07401937
157	0xbd6e2b85	-0.058146972
158	0x3e15dba6	0.1463457
159	0xbd9b91fd	-0.075962044
160	0x3dcebaab	0.10094198
161	0x3e3b1af0	0.18271995
162	0xbe22ac9b	-0.15886156
163	0xbcaf9330	-0.02143249
164	0x3dd4e6c2	0.10395576
165	0xbe3b8494	-0.18312293
166	0x3e4198b2	0.18905905
167	0x3ea4c2d2	0.32179886
168	0xbe81f9f4	-0.25386012
169	0x3e96b381	0.29433826
170	0xbc9f8beb	-0.019475898
171	0xbe388e84	-0.18023115
172	0x3ccc8028	0.024963453
173	0x3d4bd480	0.049763203
174	0x3e918bf6	0.28427094
175	0xbdbe39e9	-0.09288389
176	0x3e178b7a	0.147993
177	0xbcc7ba1a	-0.024380732
178	0xbd8e7801	-0.06956483
179	0xbd99670f	-0.0749036
180	0x3dd43d02	0.10363199
181	0xbd8c056a	-0.0683697
182	0xbdeddc21	-0.11614252
183	0x3d518d39	0.05116007
184	0xbe00863c	-0.12551206
185	0x3db3eeb1	0.08785761
186	0xbe3dc487	-0.18532
187	0x3e0d26bc	0.13784307
188	0x3cdb7af7	0.026792033
189	0x3d6961d5	0.056978066
190	0xba9df86a	-0.0012052183
191	0xbed5c326	-0.4175045
192	0xbca4e652	-0.020129357
193	0xbdcf8526	-0.10132818
194	0xbd81720a	-0.06320579
195	0xbe58fcc6	-0.21190175
196	0xbd48e20e	-0.049043708
197	0xbd973710	-0.07383549
198	0xbea0aa39	-0.3137987
199	0xbdd21900	-0.102586746
200	0x3be5483a	0.0069971355
201	0xbc5a96ef	-0.013341649
202	0xbe204117	-0.1564983
203	0xbbdf8ac1	-0.0068219607
204	0x3dcd8b27	0.10036307
205	0x3c84892f	0.016178695
206	0x3e008e16	0.12554201
207	0xbe1fd3ff	-0.15608214
208	0xbe1413e0	-0.14460707
209	0x3da920bf	0.08258199
210	0xbd51d453	-0.05122788
211	0x3daf2722	0.08552386
212	0x3d7d69b8	0.0618684
213	0x3db96772	0.09052934
214	0x3e5d6cc0	0.21623516
215	0x3f148f17	0.5803084
216	0xbe3dc7b7	-0.18533216
217	0x3d896754	0.067091614
218	0x3d1ab4ad	0.037769962
219	0xbe5fefd4	-0.21868831
220	0x3e536802	0.20645145
221	0xbe74d748	-0.23910248
222	0xbe37ee4c	-0.17961997
223	0xbd4f3ff1	-0.05059809
224	0xbbca327d	-0.0061705695
225	0x3e3896b5	0.1802624
226	0xbcb883a2	-0.022523705
227	0xbdc86cb2	-0.09786357
228	0xbd00b378	-0.031421155
229	0xbd8f0249	-0.06982858
230	0xbcf395c4	-0.0297345
231	0xbe6e3436	-0.23262104
232	0xbc20181b	-0.009771372
233	0xbceae4d8	-0.028673574
234	0x3d272421	0.04080594
235	0xbe417ca1	-0.18895198
236	0x3e7eb075	0.24872
237	0xbd84c2ac	-0.06482443
238	0xbcbad346	-0.022805821
239	0x3e485a88	0.19565785
240	0xbe81cb71	-0.25350526
241	0x3dbb115d	0.09134171
242	0xbe1ac1a4	-0.1511293
243	0xbe3ff728	-0.18746626
244	0x3c7a6249	0.015282222
245	0x3e450983	0.1924191
246	0xbda61f67	-0.08111458
247	0xbe1c8dc7	-0.15288459
248	0xbe022e36	-0.1271294
249	0x3cacce8a	0.02109458
250	0x3d3e4d00	0.04646015
251	0xbd8cda56	-0.06877582
252	0x3bfc025f	0.0076907123
253	0x3d3e771f	0.04650032
254	0xbdd6b7ce	-0.10484277
255	0x3e2a2904	0.16617209

model.to_hidden.bias f4 [40]
0	0xbce6516b	-0.028114995
1	0xbddf3840	-0.10899401
2	0xbb8df0a5	-0.0043316656
3	0xbe559fc7	-0.20861731
4	0x3e21a866	0.15786895
5	0x3db68366	0.08911781
6	0xbdf44940	-0.11928034
7	0xbe25dfe0	-0.16198683
8	0x3de5bfa3	0.112181924
9	0x3d866082	0.06561376
10	0x3e29548a	0.16536155
11	0xbe3e5a8a	-0.18589225
12	0x3e06b417	0.13154636
13	0x3c90bda0	0.017668545
14	0x3e530461	0.20607139
15	0x3d028de4	0.0318736
16	0x3e61bce8	0.22044718
17	0xbca20452	-0.01977745
18	0x3e23ae68	0.159845
19	0x3e556a5f	0.20841359
20	0x3db2e775	0.08735553
21	0xbe474a3a	-0.19461909
22	0xbe30dfbe	-0.17272851
23	0xbe0d095d	-0.13773103
24	0xbd80ff2e	-0.06298672
25	0xbda2f222	-0.079563394
26	0x3d862d14	0.06551567
27	0x3d37e99a	0.044900514
28	0x3e43ee25	0.19133814
29	0x3e584132	0.2111862
30	0xbd3d333c	-0.04619144
31	0xbd5deafd	-0.05417918
32	0x3dc730e4	0.09726122
33	0x3dfb1718	0.12260264
34	0x3d4803da	0.048831798
35	0x3d365cfe	0.044522278
36	0x3de6cf37	0.11269992
37	0xbe27ef33	-0.16399841
38	0xbe1c8c8a	-0.15287986
39	0xbe4363d3	-0.19081049

model.hidden.0.weight f4 [40, 40]
0	0x3c1dd4a2	0.009633215
1	0xbded0866	-0.115738675
2	0xbd1f287a	-0.03885696
3	0xbe15e43b	-0.14637844
4	0x3d991af7	0.07475846
5	0xbd9cf1fb	-0.076633416
6	0x3e267955	0.16257222
7	0x3e37771b	0.17916529
8	0xbcc00567	-0.023440076
9	0xbbc8b674	-0.0061252657
10	0x3e3b4f18	0.1829189
11	0x3e6dc9c1	0.23221494
12	0xbd9f0b97	-0.077658825
13	0xbe2d2be3	-0.16911273
14	0x3e33eda2	0.17571118
15	0xb9fb0f78	-0.00047885976
16	0xbb91458a	-0.0044333385
17	0xbdaa7608	-0.08323294
18	0x3dca6489	0.09882457
19	0x3c317796	0.010831734
20	0xbe58ef6b	-0.2118508
21	0x3b6e5515	0.003636663
22	0xbe142407	-0.14466868
23	0xbe3c5926	-0.18393382
24	0xbe28c656	-0.16481909
25	0x3b4e1726	0.0031446903
26	0x3e2098a7	0.15683232
27	0xbe39dbeb	-0.18150298
28	0x3dec8541	0.11548854
29	0x3ea7eef8	0.32799506
30	0x3cb39c90	0.02192524
31	0x3d7a0894	0.061043337
32	0x3c477db4	0.012175966
33	0xbe369c6a	-0.17833105
34	0x3d2c8017	0.042114343
35	0xbe7ec9f2	-0.24881724
36	0x3d915fed	0.070983745
37	0xbe8990be	-0.26868242
38	0xbdb7f7f1	-0.08982838
39	0x3da8d503	0.08243754
40	0xbd000f10	-0.031264365
41	0x3e0cd78e	0.13754103
42	0x3db73b79	0.089468904
43	0x3d514a28	0.05109611
44	0xbdf0977e	-0.11747645
45	0x3e8d6924	0.27619278
46	0xbdbb7f24	-0.091551095
47	0x3d94be0b	0.0726281
48	0x3dc4ab3a	0.096029714
49	0x3ddb8d6f	0.10720336
50	0x3ea46a8b	0.32112536
51	0xbdb35d6a	-0.08758052
52	0xbc1e1668	-0.009648897
53	0xbd79474d	-0.060859013
54	0xbd41079a	-0.04712639
55	0x3e90c82c	0.2827772
56	0xbd659d66	-0.05605831
57	0xbe0897e4	-0.13339192
58	0x3e20ec98	0.15715253
59	0x3cfb7f5e	0.030700382
60	0xbd8eab78	-0.06966299
61	0xbe496f2f	-0.1967132
62	0xbe4e25c1	-0.2013159
63	0xbea8eb0e	-0.32991832
64	0xbd3f7b3a	-0.046748377
65	0xbd0e8a7c	-0.034800038
66	0xbd476ee6	-0.048689745
67	0xbc878fa0	-0.016547978
68	0x3c863bc3	0.016385918
69	0x3d41846a	0.04724542
70	0xbdee692d	-0.116411544
71	0xbd06f807	-0.03295138
72	0x3de7cded	0.11318574
73	0xbe1b1812	-0.15145901
74	0x3d3f154a	0.046651162
75	0xbcdd2770	-0.026996344
76	0x3e5c2e95	0.21502145
77	0xbe962052	-0.29321533
78	0xbdf63ddc	-0.120235175
79	0xbe1330ec	-0.14374131
80	0xbd0d0048	-0.034424096
81	0xbe2ec23a	-0.17066279
82	0x3cd44d14	0.02591566
83	0xbd869bce	-0.06572686
84	0xbd49a3c3	-0.04922844
85	0x3e6eecb4	0.23332483
86	0xbe64fe58	-0.2236265
87	0xbccaa8e9	-0.024738746
88	0x3d1fe915	0.039040644
89	0x3ca532eb	0.020165881
90	0xbd6eb8f1	-0.058281843
91	0x3cf4a10d	0.029861951
92	0x3d854f00	0.06509209
93	0x3d5d3347	0.05400398
94	0xbe1e157b	-0.15437882
95	0x3ea35eb9	0.31908205
96	0x3da09b7e	0.07842158
97	0x3de12dda	0.109950736
98	0x3de0cf4f	0.10977041
99	0xbc72c8ea	-0.014818409
100	0x3e58b382	0.21162227
101	0x3ae3bafa	0.0017374449
102	0xbe88f9e2	-0.26753145
103	0xbe7f9543	-0.24959283
104	0xbd5fb61b	-0.05461703
105	0x3d4e109d	0.050308812
106	0x3d26c678	0.04071662
107	0x3e005824	0.12533623
108	0xbdcff0d1	-0.10153354
109	0xbe20b58d	-0.15694256
110	0xbe23eb1e	-0.16007659
111	0xbd99360b	-0.07481011
112	0x3e7cfb12	0.2470515
113	0xbe1a5b8e	-0.15073988
114	0x3d04a406	0.032382987
115	0xbe8aeb47	-0.27132627
116	0xbe17130a	-0.14753357
117	0x3d74ae98	0.059736818
118	0x3d90f7d9	0.07078523
119	0xbe08d4f2	-0.13362482
120	0xbe00537e	-0.1253185
121	0xbc846a76	-0.016164046
122	0xbce8f4cf	-0.028437046
123	0x3d13c162	0.036073096
124	0x3dad7ca9	0.08471043
125	0x3d3d05b1	0.046148006
126	0xbe0300eb	-0.12793319
127	0xbe4742f4	-0.19459134
128	0x3dc4264f	0.09577619
129	0xbe576534	-0.210347
130	0x3d105ac4	0.03524281
131	0xbe25c372	-0.16187838
132	0x3d4b2b21	0.049601678
133	0x3d984278	0.07434553
134	0x3e0b5bc4	0.13609225
135	0xbe50f372	-0.20405367
136	0x3de632f6	0.11240189
137	0xbe31f31c	-0.17377895
138	0xbdfd87c5	-0.123794116
139	0xbd4c69fc	-0.049905762
140	0x3da78f8c	0.08181676
141	0xbe725e9a	-0.236689
142	0x3daea609	0.085277624
143	0x3e87ab66	0.26497954
144	0xbb9b92e4	-0.0047477353
145	0x3de96a18	0.11397189
146	0x3de12bd0	0.10994685
147	0xbdf5bd63	-0.11999013
148	0xbe290955	-0.16507466
149	0xbd4e75d3	-0.050405335
150	0x3e18d282	0.14924052
151	0x3e1a1843	0.15048318
152	0xbdf525c4	-0.11970094
153	0x3e82c6e7	0.25542375
154	0x3df12de1	0.11776329
155	0xbbee2f5f	-0.0072688307
156	0x3cbfeb9e	0.02342778
157	0xbc185dad	-0.009299678
158	0x3d79f8d4	0.061028317
159	0xbdf840c6	-0.121217296
160	0x3dde7656	0.108624145
161	0x3cf63410	0.030054122
162	0xbe08384f	-0.1330273
163	0xbe48df11	-0.19616343
164	0x3dc1bb23	0.094595216
165	0x3dfe1740	0.12406778
166	0x3deafffb	0.11474606
167	0x3e01e3fa	0.12684622
168	0xbcb6447f	-0.022249458
169	0x3e0885c9	0.13332285
170	0x3dd9ae85	0.1062899
171	0x3d8ed55f	0.06974291
172	0x3e0a7538	0.13521278
173	0xbd95a831	-0.073074706
174	0x3d8ab41d	0.06772635
175	0xbd8b202a	-0.06793244
176	0x3d135ff3	0.035980176
177	0xbc98a68b	-0.018634101
178	0x3e138982	0.14407924
179	0xbe577438	-0.21040428
180	0xbde9c96c	-0.11415371
181	0x3d745ff4	0.05966182
182	0xbe377821	-0.1791692
183	0xbd326000	-0.043548584
184	0x3da6f488	0.081521094
185	0x3dd950f7	0.10611146
186	0x3d7971c7	0.060899522
187	0xbe4436fc	-0.191616
188	0xbc513732	-0.012769507
189	0xbb8e7de7	-0.004348505
190	0x3d2a1ce2	0.04153145
191	0x3e41aa8f	0.18912719
192	0xbe43e19c	-0.19129032
193	0xbe724efd	-0.23662944
194	0xbe69c003	-0.22827153
195	0x3dc23805	0.09483341
196	0xbc9eb386	-0.019372713
197	0x3dbd25e4	0.09235743
198	0x3a1216f2	0.0005572877
199	0xbda36ec2	-0.0798011
200	0xbd175914	-0.036950186
201	0x3d85bd3b	0.065302335
202	0xbdd89eeb	-0.10577186
203	0x3dd12140	0.1021142
204	0xbc80a5c9	-0.015704053
205	0x3e391f6e	0.18078396
206	0xbcdbbc78	-0.026823267
207	0xbe03500d	-0.12823506
208	0x3e9c19ac	0.30488336
209	0x3ce2b31b	0.027673295
210	0x3d444242	0.04791475
211	0x3dfe95e1	0.12430931
212	0xbd8262c7	-0.063664965
213	0xbe688e20	-0.22710466
214	0x3d1c5069	0.038162623
215	0x3d55d34e	0.05220347
216	0x3dfc955f	0.12333178
217	0x3da84261	0.08215786
218	0x3d8e0db5	0.06936208
219	0x3de48933	0.11158981
220	0xbda146bf	-0.07874822
221	0xbe06b99b	-0.1315674
222	0x3d6fa089	0.058502708
223	0xbe156c44	-0.14592081
224	0xbe4428d2	-0.19156197
225	0xbd24a374	-0.040194944
226	0x3df66901	0.12031747
227	0x3d1cdc44	0.038296
228	0xbd383fb6	-0.044982634
229	0x3e9d0558	0.3066814
230	0xbdda48f6	-0.106584474
231	0xbc9e4e2e	-0.019324388
232	0xbd86af8b	-0.06576451
233	0x3e8c4d72	0.27402836
234	0xbdb733ba	-0.08945413
235	0x3dae7721	0.08518816
236	0xbd8f8a35	-0.07008783
237	0xbdc0a63f	-0.09406709
238	0xbe823cf3	-0.25437126
239	0xbdfa0996	-0.122088596
240	0x3d695bf3	0.056972455
241	0xbd8737d8	-0.06602448
242	0xbd0793f9	-0.033100102
243	0x3d8b9576	0.06815617
244	0x3e4442f9	0.19166173
245	0xbdaa6d00	-0.08321571
246	0xbc7a0fd7	-0.015262566
247	0xbdcbacf5	-0.09945098
248	0xbdeb7003	-0.11495974
249	0xbe0b3616	-0.13594851
250	0x3de2c940	0.11073542
251	0xbda87996	-0.08226316
252	0xbd9f9fce	-0.07794152
253	0xbc202d7c	-0.009776469
254	0x3bb7ad8b	0.0056054047
255	0x3dd3dfec	0.10345444

model.hidden.0.bias f4 [40]
0	0xbba395af	-0.004992209
1	0xbd21a6aa	-0.039465584
2	0xbdb8c21d	-0.09021399
3	0xbddb9406	-0.107215926
4	0xbe13d0c5	-0.14435108
5	0x3d11a2a8	0.03555551
6	0xbe0fbffa	-0.14038077
7	0x3e642d4e	0.22282907
8	0xbe015720	-0.12630892
9	0x3e37d5fc	0.17952722
10	0xbdaf0f95	-0.08547894
11	0xbce747e7	-0.028232528
12	0xbdced44c	-0.10099086
13	0xbd5e510a	-0.054276504
14	0x3d1b2d94	0.037885264
15	0x3d1bd100	0.038041115
16	0x3d811b27	0.06304007
17	0x3e3ca774	0.18423253
18	0x3cddd607	0.027079595
19	0xbd8462ed	-0.06464181
20	0x3d531e91	0.051542822
21	0xbd26c44b	-0.040714543
22	0xbd025c1a	-0.031826116
23	0xbd9d5b90	-0.0768348
24	0x3dc0d155	0.09414927
25	0x3e12b699	0.14327468
26	0xbe10b96a	-0.1413323
27	0xbc83ba85	-0.01608015
28	0xbd3e65fc	-0.04648398
29	0xbe1e43bf	-0.1545553
30	0xbe29d1b4	-0.16583902
31	0xbd4f86ba	-0.050665595
32	0xbd41f876	-0.04735609
33	0x3d347d59	0.044064853
34	0x3ce1a280	0.027543306
35	0x3d90e37c	0.07074639
36	0x3db7139c	0.08939287
37	0xbc0e9793	-0.00870313
38	0x3e65bebe	0.22436044
39	0x3d82ed00	0.063928604

model.to_out.weight f4 [2, 40]
0	0xbe57635c	-0.21033996
1	0xbe3915cf	-0.18074726
2	0x3df244eb	0.11829551
3	0xbe099879	-0.1343707
4	0xbd9f7bec	-0.07787308
5	0xbe62372a	-0.22091356
6	0x3d8da3ef	0.069160335
7	0xbe91c966	-0.28473967
8	0x3c6e6dcf	0.014552548
9	0xbea381bd	-0.3193492
10	0x3c9e80cd	0.019348526
11	0xbe015860	-0.12631369
12	0x3e02e1aa	0.12781397
13	0x3e8bc54d	0.27298966
14	0xbe99ba76	-0.3002507
15	0xbeabadce	-0.3353104
16	0x3ea006ab	0.31255087
17	0x3ec50057	0.38476822
18	0x3e2fb942	0.17160514
19	0xbe9ed88e	-0.31024593
20	0xbea95286	-0.33070773
21	0x3e2c647b	0.16835205
22	0x3e6ac400	0.2292633
23	0x3e8f37e6	0.27972335
24	0x3e8748cc	0.26422727
25	0x3d02a726	0.031897686
26	0xbe287be7	-0.16453515
27	0xbe2c76e3	-0.16842227
28	0xbe1d86a6	-0.15383396
29	0xbd6d443b	-0.057926398
30	0xbdc50f50	-0.09622061
31	0xbd47074a	-0.048590936
32	0xbe1a7bf3	-0.15086345
33	0x3e915aa8	0.28389478
34	0xbe55637a	-0.20838729
35	0x3eb9e53c	0.36307704
36	0xbe595ddd	-0.21227212
37	0xbea46688	-0.32109475
38	0xbe88b3ec	-0.2669977
39	0xbda6355d	-0.08115647
40	0xbea4405d	-0.32080355
41	0xbe8e094f	-0.27741477
42	0xbea6411b	-0.32471547
43	0x3e952528	0.2912991
44	0xbe4b23c7	-0.19837867
45	0xbd143d31	-0.03619117
46	0xbdac99fd	-0.084278084
47	0xbe0ef3c2	-0.13960174
48	0x3e903b2a	0.2817014
49	0xbe002c97	-0.1251701
50	0x3e87385d	0.2641019
51	0xba35e026	-0.0006938003
52	0xbdebec74	-0.11519709
53	0xbe4131f4	-0.18866712
54	0xbe0ade97	-0.13561474
55	0xbddcb02b	-0.10775789
56	0xbbc15b69	-0.0059007895
57	0x3d2ca51a	0.04214964
58	0xbe37ee49	-0.17961992
59	0xbbdaeb21	-0.0066808616
60	0x3d8ca7d5	0.06867949
61	0xbd9e6649	-0.07734353
62	0x3dcf915c	0.10135147
63	0x3e644490	0.2229178
64	0xbe6d6323	-0.23182349
65	0x3e1ae44b	0.1512615
66	0xbc3e6d95	-0.011622806
67	0x3e8636cd	0.26213685
68	0x3cdc2b35	0.026876071
69	0x3e03f0d4	0.12884837
70	0x3e3420c6	0.17590627
71	0xbe8ac474	-0.27103007
72	0xbe5f0ee4	-0.21783024
73	0x3d067771	0.032828752
74	0x3e5da0dd	0.21643396
75	0x3d0b137b	0.033954125
76	0x3dafad62	0.08577992
77	0x3db8cca6	0.090234086
78	0xbe5e70f5	-0.21722777
79	0x3e66ff4c	0.22558326

model.to_out.bias f4 [2]
0	0x3d0b48e8	0.034005076
1	0x3df3b1ff	0.118991844

exp_avg f4 [40, 24]
0	0x3800dcae	3.0723102e-05
1	0x389a9323	7.3706986e-05
2	0xb85dfb95	-5.292481e-05
3	0x384be699	4.8613732e-05
4	0x39069158	0.0001283338
5	0x380ea661	3.401039e-05
6	0xb83920c8	-4.4137967e-05
7	0x383d7a94	4.517527e-05
8	0xb8b18163	-8.464118e-05
9	0xb97658e6	-0.00023493505
10	0x3908ae67	0.0001303494
11	0x38fa102f	0.000119239434
12	0xb8f0fe92	-0.00011491509
13	0x37930bb5	1.7529217e-05
14	0x387f9aab	6.0940783e-05
15	0x38039a4b	3.137653e-05
16	0x394205c8	0.00018503435
17	0xb7f15009	-2.8766708e-05
18	0x384c3571	4.868716e-05
19	0x389f93bf	7.609231e-05
20	0xb8849b7e	-6.323213e-05
21	0xb92cf70c	-0.0001649523
22	0x3952c11c	0.000200991
23	0xb678c9b5	-3.7072289e-06
24	0x38063279	3.1995096e-05
25	0xb7eed316	-2.8470105e-05
26	0x3912222c	0.00013936375
27	0x3866f6fb	5.506629e-05
28	0x35b48dcd	1.3452315e-06
29	0x38932ad7	7.017486e-05
30	0x3880f4f5	6.1491424e-05
31	0x38aa290b	8.1138765e-05
32	0x38fae1b3	0.00011962969
33	0x3948f84f	0.00019165988
34	0xb84ee97f	-4.9331687e-05
35	0x387374ef	5.8044618e-05
36	0x39892012	0.0002615457
37	0x380773eb	3.2294465e-05
38	0x38d3787c	0.00010083706
39	0x38412673	4.6050594e-05
40	0xb8993c28	-7.3068135e-05
41	0x3916a80c	0.00014367717
42	0x3830ac1d	4.2121963e-05
43	0x371716c3	9.005601e-06
44	0x3958795c	0.00020644575
45	0x3915c417	0.00014282796
46	0xb7121602	-8.707402e-06
47	0x387a0301	5.9607442e-05
48	0x37e1fb57	2.693913e-05
49	0x382b365a	4.0820196e-05
50	0xb633a97a	-2.6771727e-06
51	0x37401a96	1.1450282e-05
52	0x3726fdb3	9.95344e-06
53	0x377dfcf6	1.5138872e-05
54	0x37fbe738	3.0029201e-05
55	0x37dfee47	2.6694628e-05
56	0x364edfd0	3.0826668e-06
57	0x37a9f18f	2.0258854e-05
58	0x374f7335	1.2364985e-05
59	0x3810545f	3.4410852e-05
60	0xb59c79e8	-1.1658385e-06
61	0x3803c79f	3.1418745e-05
62	0x37def531	2.6578638e-05
63	0x379cbb07	1.868374e-05
64	0x381c3238	3.724007e-05
65	0xb6ae3338	-5.1915667e-06
66	0x3802eb11	3.1213338e-05
67	0xb64cd5aa	-3.0522738e-06
68	0x3780a709	1.533657e-05
69	0x3703d261	7.857191e-06
70	0x386bc464	5.621127e-05
71	0x3603c5b9	1.963561e-06
72	0xb6cb96c1	-6.0674215e-06
73	0xb7b60299	-2.16973e-05
74	0x380f6fee	3.41981e-05
75	0xb89977a8	-7.317896e-05
76	0xb906fb72	-0.00012872907
77	0xb80e8199	-3.3976135e-05
78	0x3809387e	3.2715958e-05
79	0xb82bae3f	-4.0931856e-05
80	0x385cf6c1	5.2681895e-05
81	0x3983ccd8	0.00025138888
82	0xb8e55a37	-0.00010936375
83	0xb9101163	-0.00013739387
84	0x387f13ff	6.081536e-05
85	0xb7621f2d	-1.3477908e-05
86	0xb8a4e5f2	-7.86296e-05
87	0xb805b4b9	-3.1877982e-05
88	0xb938b0b5	-0.00017613436
89	0x36960d14	4.471871e-06
90	0xb872942e	-5.78353e-05
91	0xb83766bf	-4.372629e-05
92	0x36ebbe3f	7.0256933e-06
93	0x38ed8383	0.000113255366
94	0xb90f6f85	-0.00013679087
95	0xb831e8bd	-4.2416843e-05
96	0x3716295a	8.950325e-06
97	0x355ebcfb	8.297645e-07
98	0xb83e8186	-4.5420158e-05
99	0x37fbef62	3.0033003e-05
100	0x38b4aa75	8.614819e-05
101	0xb4ea05d3	-4.3590134e-07
102	0xb8a94c76	-8.07279e-05
103	0xb7bb3919	-2.2318725e-05
104	0xb83e6ed4	-4.5402747e-05
105	0xb972e08b	-0.00023162567
106	0x38a65968	7.93215e-05
107	0x37e4088c	2.7183698e-05
108	0xb918f6b3	-0.00014587752
109	0xb78b8d4c	-1.6635888e-05
110	0xb7452bfc	-1.1752356e-05
111	0x36515768	3.1194304e-06
112	0x38fa9425	0.00011948523
113	0xb8ea2033	-0.00011163987
114	0x37f2d15f	2.8946144e-05
115	0x3822dc6c	3.8829094e-05
116	0xb8bdb165	-9.0452646e-05
117	0xb91b32a0	-0.00014800811
118	0x3866eecd	5.5058674e-05
119	0x37d0ce41	2.4891577e-05
120	0x3872705a	5.780193e-05
121	0x38ffc3ee	0.00012195842
122	0x380021d9	3.05491e-05
123	0x388ebcc7	6.80625e-05
124	0x375f36b3	1.3304571e-05
125	0x38653f2a	5.465668e-05
126	0x39009a8e	0.00012264607
127	0x38db94d1	0.00010470453
128	0x37946374	1.7689286e-05
129	0x37197b4e	9.14822e-06
130	0x38bfec84	9.151644e-05
131	0x39176f48	0.00014441938
132	0x38bc3853	8.97503e-05
133	0x38bfcc1d	9.145609e-05
134	0x38edb595	0.00011334863
135	0x387b7878	5.995526e-05
136	0x39073317	0.00012893636
137	0x3904fbc9	0.00012682298
138	0x389ea6a8	7.565069e-05
139	0x377832e1	1.4793798e-05
140	0x38e16c76	0.000107490385
141	0x37dd2c41	2.636586e-05
142	0x39418037	0.00018453678
143	0x37aef6cb	2.0857338e-05
144	0xb6bf88bb	-5.708161e-06
145	0xb8cbb869	-9.7141434e-05
146	0x3882edbd	6.243165e-05
147	0x38cefaf9	9.869593e-05
148	0x38bdb2ab	9.045502e-05
149	0x384a6518	4.8254704e-05
150	0xb7bb4a85	-2.2326838e-05
151	0x38466b36	4.7306727e-05
152	0x383947b3	4.4174212e-05
153	0xb8c92486	-9.59123e-05
154	0xb70ca48e	-8.382964e-06
155	0x38eafe67	0.000112053756
156	0x3911793f	0.00013873445
157	0xb78ee30a	-1.7033442e-05
158	0x38d82b01	0.00010307693
159	0x37f9fd9f	2.9801215e-05
160	0x3793a2cc	1.7599574e-05
161	0x38e448fc	0.000108854816
162	0x38268c70	3.9708277e-05
163	0x37ca80d4	2.4140267e-05
164	0x39033edf	0.00012516555
165	0x382b7155	4.0875126e-05
166	0xb80c1a08	-3.3402845e-05
167	0x38cbc52d	9.716521e-05
168	0x38049aed	3.161554e-05
169	0x38d04c65	9.9324425e-05
170	0xb85c047e	-5.245627e-05
171	0x393142d1	0.00016904926
172	0x398a9dfc	0.0002643912
173	0x38a57ae2	7.890702e-05
174	0x3814fa8f	3.55193e-05
175	0x38cd1939	9.77986e-05
176	0xb8cafdce	-9.6793854e-05
177	0xb9f9064c	-0.00047497672
178	0x39869877	0.00025672067
179	0x39b36b07	0.00034221282
180	0xb8bc61d1	-8.982758e-05
181	0x38c42043	9.3520175e-05
182	0x393597e0	0.00017318083
183	0x38d35371	0.00010076806
184	0x39c32eea	0.00037228252
185	0x38d94fcd	0.000103622304
186	0x38fc084b	0.00012017841
187	0x38bf36c0	9.117788e-05
188	0x389f46e9	7.594919e-05
189	0xb97c711e	-0.00024074732
190	0x39c6a1cf	0.0003788606
191	0x388d1ff4	6.729356e-05
192	0x390dd4ac	0.00013526034
193	0x393a2804	0.00017753249
194	0x394838bf	0.00019094626
195	0x3912a55b	0.00013985245
196	0x370ce490	8.397867e-06
197	0x395c93b9	0.00021035866
198	0x39b208ae	0.00033957273
199	0x3974abab	0.00023333605
200	0x39514806	0.00019958624
201	0x399b09e7	0.00029571282
202	0x389616f9	7.156836e-05
203	0x3995dfdd	0.00028586286
204	0x39f9e402	0.0004766286
205	0x396f5b5e	0.00022826853
206	0x399357b4	0.0002810337
207	0x3928aab8	0.00016085326
208	0x3889e619	6.575528e-05
209	0x39dfc9cf	0.00042684234
210	0x394c8114	0.00019503041
211	0x370b4664	8.301435e-06
212	0x39daf723	0.0004176433
213	0x39947e95	0.0002832307
214	0x396e1f52	0.00022709116
215	0x38eaf295	0.00011203174
216	0x38a9e608	8.1013946e-05
217	0x38d27ceb	0.00010036848
218	0x389dc6e4	7.52339e-05
219	0x38e71eef	0.000110207
220	0x38a0b4c2	7.663063e-05
221	0x38c58bcb	9.4197305e-05
222	0x38e5509e	0.00010934587
223	0x3921b1eb	0.00015420436
224	0x37fd926b	3.0228131e-05
225	0x37be5b03	2.2692146e-05
226	0x38c40a66	9.347945e-05
227	0x395b3f93	0.00020909151
228	0x3926c229	0.00015903324
229	0x38d0da44	9.958868e-05
230	0x393f105b	0.00018221272
231	0x38bb42f6	8.929327e-05
232	0x3918ae68	0.00014560821
233	0x3945ad6a	0.00018851986
234	0x38c38486	9.323009e-05
235	0x3871f20a	5.7684294e-05
236	0x393f81f5	0.00018263592
237	0x38161bac	3.578856e-05
238	0x397240c0	0.0002310304
239	0x3845d347	4.7165227e-05
240	0x39358bf2	0.00017313639
241	0x398d8681	0.0002699383
242	0x390f5c62	0.00013671958
243	0x39c35db5	0.00037263116
244	0x399668d8	0.00028688344
245	0x39a3e3ac	0.00031259411
246	0x39d759b9	0.00041074844
247	0x39b4a6f8	0.00034456677
248	0x38cc1c73	9.732777e-05
249	0xb95c31be	-0.00020999365
250	0x399e126f	0.00030149842
251	0x3a345cf8	0.00068803085
252	0x39fbf666	0.00048058032
253	0x3995736b	0.00028505488
254	0x3a01b92d	0.0004948553
255	0x39944944	0.00028283347

exp_avg_sq f4 [40, 24]
0	0x3397698d	7.050685e-08
1	0x3374cb2c	5.699546e-08
2	0x3385ea02	6.235861e-08
3	0x33974658	7.044281e-08
4	0x338113ad	6.0106096e-08
5	0x3369f6df	5.4474068e-08
6	0x33790d1d	5.7986757e-08
7	0x33803bfe	5.971377e-08
8	0x3385aae6	6.2243814e-08
9	0x33a5a40d	7.713252e-08
10	0x3386b697	6.273074e-08
11	0x339ae3d8	7.2126284e-08
12	0x3384df40	6.187338e-08
13	0x33762354	5.730847e-08
14	0x338f8916	6.683892e-08
15	0x33670bc6	5.3794587e-08
16	0x338c5cab	6.536114e-08
17	0x338e4aa8	6.62597e-08
18	0x338628ac	6.2472594e-08
19	0x337f680b	5.946644e-08
20	0x3386406f	6.251582e-08
21	0x3372b773	5.6511862e-08
22	0x337fbae6	5.9541797e-08
23	0x32b21340	2.0730681e-08
24	0x340454c5	1.2324297e-07
25	0x33eae676	1.0938395e-07
26	0x3403cb18	1.2274211e-07
27	0x34043d2a	1.231571e-07
28	0x34049f7c	1.2351478e-07
29	0x33edd63e	1.1075143e-07
30	0x33d0b9c6	9.719547e-08
31	0x33fa2c1c	1.16495556e-07
32	0x33f1155e	1.1226324e-07
33	0x340d84f2	1.3180014e-07
34	0x340cd692	1.3116576e-07
35	0x34096869	1.2797103e-07
36	0x34038f06	1.2252357e-07
37	0x33f8d534	1.1587181e-07
38	0x3403675d	1.2237929e-07
39	0x33fc650e	1.1753046e-07
40	0x33ee4e85	1.1097021e-07
41	0x340cbecc	1.3107928e-07
42	0x33fe1a86	1.1832621e-07
43	0x33efb99a	1.11630655e-07
44	0x340eb554	1.3290747e-07
45	0x33f39ed6	1.13444614e-07
46	0x33f83944	1.15588165e-07
47	0x3366eb7f	5.376523e-08
48	0x3251e660	1.2217782e-08
49	0x3240ff10	1.1233865e-08
50	0x3250b42b	1.2148159e-08
51	0x32555502	1.241756e-08
52	0x326e7cbc	1.3881785e-08
53	0x323d935f	1.1034756e-08
54	0x325dac30	1.2903044e-08
55	0x3256771f	1.2483524e-08
56	0x3252e19e	1.2274908e-08
57	0x325090e3	1.2140137e-08
58	0x325a063f	1.269069e-08
59	0x32564b1f	1.247352e-08
60	0x3257e698	1.2567078e-08
61	0x324abc2e	1.1800735e-08
62	0x326fbd01	1.39546055e-08
63	0x3231d089	1.0350171e-08
64	0x325aaeaa	1.2728984e-08
65	0x3255ff8b	1.24563355e-08
66	0x3241f0f8	1.12888685e-08
67	0x324c1bed	1.1880712e-08
68	0x32584245	1.2587923e-08
69	0x3230512f	1.0263007e-08
70	0x325fe25e	1.3031778e-08
71	0x31d5fc01	6.2277654e-09
72	0x3387cb0f	6.3233635e-08
73	0x337af0a3	5.842652e-08
74	0x337335ff	5.6626956e-08
75	0x3388737c	6.354e-08
76	0x3383be89	6.134821e-08
77	0x33589fa8	5.0436626e-08
78	0x337574de	5.7149798e-08
79	0x3364d784	5.3281397e-08
80	0x3377e811	5.7720232e-08
81	0x339675b5	7.00633e-08
82	0x3383e09b	6.1410184e-08
83	0x33907bf4	6.7280695e-08
84	0x3377970d	5.764655e-08
85	0x337b365c	5.848993e-08
86	0x339236a5	6.8085946e-08
87	0x33757a96	5.7155e-08
88	0x3385efca	6.2369125e-08
89	0x338bd27c	6.510979e-08
90	0x3376221f	5.730737e-08
91	0x336a3892	5.453382e-08
92	0x3387ee3c	6.329762e-08
93	0x3354b9c5	4.9529053e-08
94	0x3373c734	5.675902e-08
95	0x32ab919d	1.9973237e-08
96	0x34007881	1.1964768e-07
97	0x3401e09c	1.2095774e-07
98	0x33f9e7e0	1.1637144e-07
99	0x34064ac3	1.250692e-07
100	0x33f5e754	1.145078e-07
101	0x33e28fe7	1.0550121e-07
102	0x33ec9e63	1.1018417e-07
103	0x33d3284e	9.8327845e-08
104	0x33f0abe7	1.120714e-07
105	0x340c7af0	1.308324e-07
106	0x3405898e	1.2436632e-07
107	0x34043951	1.231431e-07
108	0x33ee8515	1.1106946e-07
109	0x33ea3b15	1.0907221e-07
110	0x3406a02a	1.253799e-07
111	0x33f94ca8	1.160891e-07
112	0x33fc815d	1.17581955e-07
113	0x33f8cb40	1.1585371e-07
114	0x33fae301	1.1682824e-07
115	0x33eb3ac1	1.09537275e-07
116	0x3412049c	1.3598986e-07
117	0x33ecf40f	1.10340004e-07
118	0x33ec0670	1.0990777e-07
119	0x33176d64	3.5256917e-08
120	0x32e778f6	2.6946946e-08
121	0x32c9b9de	2.3484002e-08
122	0x33219167	3.7617976e-08
123	0x32e4f944	2.6656046e-08
124	0x32f923d0	2.90037e-08
125	0x33091362	3.1915427e-08
126	0x32dc8e8a	2.567619e-08
127	0x32f25eb2	2.821557e-08
128	0x32ed2cbe	2.7610778e-08
129	0x33060a24	3.120853e-08
130	0x32ed8811	2.7652307e-08
131	0x33120083	3.399374e-08
132	0x330b5cf1	3.244799e-08
133	0x33076fe1	3.153389e-08
134	0x32ede9fb	2.7696833e-08
135	0x32d8175c	2.5156332e-08
136	0x32eab96e	2.7325509e-08
137	0x33014c6a	3.010465e-08
138	0x3327927e	3.901595e-08
139	0x32d39acd	2.4634028e-08
140	0x33084162	3.1724433e-08
141	0x32e578ef	2.6714103e-08
142	0x33054ba0	3.1035256e-08
143	0x329dec46	1.838465e-08
144	0x3341571e	4.5015547e-08
145	0x3316a26b	3.5072315e-08
146	0x3369ef74	5.446732e-08
147	0x334d239f	4.776268e-08
148	0x3349e143	4.7003834e-08
149	0x3331c7ca	4.139273e-08
150	0x332d41ef	4.0339668e-08
151	0x335185e4	4.8783377e-08
152	0x334047b8	4.476871e-08
153	0x33482d85	4.660753e-08
154	0x335c4afb	5.1290936e-08
155	0x3358f121	5.0510724e-08
156	0x3354fd69	4.959057e-08
157	0x3346d17e	4.6291e-08
158	0x335942ca	5.0584994e-08
159	0x3316ddca	3.5126313e-08
160	0x333bc015	4.3714028e-08
161	0x3347d415	4.6526186e-08
162	0x33530639	4.9132925e-08
163	0x333044ed	4.104088e-08
164	0x336858e7	5.4097566e-08
165	0x33250ccc	3.8428695e-08
166	0x335b99cd	5.1129792e-08
167	0x32ed1390	2.7599327e-08
168	0x3453d1b7	1.97272e-07
169	0x3429099e	1.574285e-07
170	0x3447242a	1.8546476e-07
171	0x346b7dcf	2.193185e-07
172	0x34453300	1.8365608e-07
173	0x343419e2	1.6773222e-07
174	0x34497d39	1.876514e-07
175	0x34390354	1.7230678e-07
176	0x3443e91c	1.8245595e-07
177	0x347cb2d8	2.3534392e-07
178	0x3449b3ab	1.8784947e-07
179	0x3467449c	2.1538511e-07
180	0x34419040	1.8027004e-07
181	0x3435c0a8	1.6927027e-07
182	0x346a3047	2.1810511e-07
183	0x342c2b53	1.603451e-07
184	0x3458d63e	2.0194508e-07
185	0x345dc3d6	2.0653474e-07
186	0x34427ac1	1.8112316e-07
187	0x343f8577	1.7836815e-07
188	0x344ae40c	1.8895679e-07
189	0x34304b3f	1.6418652e-07
190	0x344e4032	1.9208599e-07
191	0x3392c99e	6.835329e-08
192	0x34dc1eb6	4.1000538e-07
193	0x34e10e04	4.1919714e-07
194	0x34e45e3f	4.2536882e-07
195	0x34d78e6a	4.015049e-07
196	0x34d5bfc9	3.9813884e-07
197	0x34c608e6	3.6886848e-07
198	0x34df97ff	4.1647579e-07
199	0x34be52b0	3.545042e-07
200	0x34d94073	4.0466293e-07
201	0x34f15108	4.4948706e-07
202	0x34e51505	4.2669868e-07
203	0x34e34529	4.2332366e-07
204	0x34d5c18a	3.981516e-07
205	0x34dc6511	4.105173e-07
206	0x34d28129	3.9209525e-07
207	0x34ee4ba6	4.4385996e-07
208	0x34dd3092	4.1199797e-07
209	0x34d478bb	3.957592e-07
210	0x34ebba8e	4.3907897e-07
211	0x34da5b12	4.0671927e-07
212	0x34f400cb	4.544912e-07
213	0x34d953b0	4.048029e-07
214	0x34d5ead5	3.9845204e-07
215	0x340eea8a	1.3310105e-07
216	0x330437b0	3.0784292e-08
217	0x3301c2a4	3.0212178e-08
218	0x33144c52	3.4528348e-08
219	0x331865a3	3.5482696e-08
220	0x33184ffc	3.5463003e-08
221	0x33041100	3.0749106e-08
222	0x33099a57	3.203817e-08
223	0x331204ff	3.3997818e-08
224	0x33022168	3.0298366e-08
225	0x33186e05	3.549032e-08
226	0x3315aeed	3.485086e-08
227	0x332e89a4	4.0637715e-08
228	0x33197f02	3.57386e-08
229	0x3307ab80	3.1588115e-08
230	0x3314a2e2	3.4607076e-08
231	0x330d5b2d	3.2912045e-08
232	0x330e720b	3.3165673e-08
233	0x3311b0e2	3.3921317e-08
234	0x330ce329	3.280289e-08
235	0x3303e600	3.0709998e-08
236	0x3333fda5	4.1907374e-08
237	0x330a46f7	3.219517e-08
238	0x33228cd6	3.7846654e-08
239	0x32b8d213	2.151595e-08
240	0x349a6ac1	2.876241e-07
241	0x3492c93b	2.7341034e-07
242	0x34a7350c	3.114477e-07
243	0x349b7cb5	2.8961736e-07
244	0x34aaa8a0	3.1787658e-07
245	0x349de120	2.940733e-07
246	0x34a0624c	2.9873843e-07
247	0x3494145b	2.758196e-07
248	0x349f4a5e	2.9670167e-07
249	0x34b088ca	3.2882082e-07
250	0x349fae9c	2.9743103e-07
251	0x34bb93ac	3.493891e-07
252	0x34c27116	3.6217597e-07
253	0x34a59692	3.08432e-07
254	0x34a0079c	2.980786e-07
255	0x34aa4fa4	3.1722914e-07

exp_avg f4 [40]
0	0x379bbe2d	1.8565997e-05
1	0x38958e30	7.131358e-05
2	0x379d01ef	1.8716759e-05
3	0xb7c98916	-2.4024903e-05
4	0xb79aa4b4	-1.8434926e-05
5	0x38a5c15a	7.903828e-05
6	0x38251216	3.935591e-05
7	0x38afd909	8.385076e-05
8	0x39644500	0.00021769479
9	0x38eb362e	0.00011215765
10	0x39a7d5ab	0.00032011917
11	0x38aa7b4f	8.1292e-05
12	0x38b34426	8.548079e-05
13	0xb8c67ed4	-9.464999e-05
14	0x38e28016	0.00010800378
15	0x39624b97	0.00021581199
16	0xb8539388	-5.044372e-05
17	0xb70ddb45	-8.455308e-06
18	0x3956c887	0.00020483333
19	0xb8d5b741	-0.00010190765
20	0xb94276d0	-0.00018545543
21	0x37921b2d	1.7417211e-05
22	0xb980723d	-0.00024499177
23	0xb9d1aefa	-0.00039993954
24	0xb8d2ed70	-0.000100578065
25	0x389e095c	7.5357704e-05
26	0xb6fa33f9	-7.456631e-06
27	0xb804ae02	-3.163331e-05
28	0x386b61e1	5.6119523e-05
29	0x3991d2cd	0.00027813614
30	0xb91a62bc	-0.00014723366
31	0x37f6218b	2.9341105e-05
32	0x3824f1a4	3.9325692e-05
33	0xb95e3ec7	-0.00021194956
34	0xb920a887	-0.0001532157
35	0xb8edf0b3	-0.000113458744
36	0x38e47377	0.00010893394
37	0xb98f1a59	-0.00027294716
38	0xb96b8515	-0.00022460923
39	0x3882ddf9	6.240229e-05

exp_avg_sq f4 [40]
0	0x331b166e	3.610915e-08
1	0x338f0c25	6.6611655e-08
2	0x31fdbc19	7.3846533e-09
3	0x332459ee	3.8266016e-08
4	0x339fd957	7.4435484e-08
5	0x32bd36f5	2.2027487e-08
6	0x32eb9e9d	2.742973e-08
7	0x33e551bd	1.06785116e-07
8	0x34a2aadf	3.0299177e-07
9	0x32c86ba7	2.3332019e-08
10	0x3480f0f7	2.4017183e-07
11	0x3307c706	3.1613148e-08
12	0x3388d9f5	6.37264e-08
13	0x33dc9a19	1.02725785e-07
14	0x341c08fe	1.4531904e-07
15	0x338ad815	6.465431e-08
16	0x32813dd7	1.5045698e-08
17	0x32088b17	7.947867e-09
18	0x34212a44	1.500967e-07
19	0x330bf0b9	3.2582395e-08
20	0x3435e451	1.694e-07
21	0x334d22ae	4.7761823e-08
22	0x33ca4258	9.418426e-08
23	0x34926301	2.7266654e-07
24	0x33d12eae	9.740812e-08
25	0x3303b222	3.0662825e-08
26	0x33e8f1c6	1.084732e-07
27	0x327ececa	1.4831764e-08
28	0x338103ce	6.007723e-08
29	0x348280e6	2.4308173e-07
30	0x3336bbfe	4.2546155e-08
31	0x34269927	1.5515671e-07
32	0x33901823	6.709913e-08
33	0x337b0d8e	5.845282e-08
34	0x330b9977	3.2503035e-08
35	0x33b60a35	8.476892e-08
36	0x331bd991	3.6286625e-08
37	0x3420af72	1.4964988e-07
38	0x3442a925	1.8129192e-07
39	0x329c0619	1.8163563e-08

exp_avg f4 [40, 40]
0	0xb6dc8b78	-6.572747e-06
1	0xb8a87f56	-8.0345824e-05
2	0x389943b8	7.308222e-05
3	0xb87f7ad0	-6.0911116e-05
4	0x3913999d	0.00014076238
5	0x39670347	0.00022031098
6	0x38e7a50b	0.0001104568
7	0xb91b9640	-0.00014837924
8	0x37802f96	1.5280948e-05
9	0xb91f32cc	-0.00015182345
10	0x39037118	0.00012535264
11	0xb8ee616a	-0.00011366869
12	0x38cf44e4	9.883361e-05
13	0xb7de16cd	-2.647508e-05
14	0x38c1f4e7	9.248574e-05
15	0xb8aae0b4	-8.148086e-05
16	0x390c8023	0.00013399175
17	0xb8708b17	-5.7349996e-05
18	0x388866f1	6.50416e-05
19	0x3998a23e	0.0002911258
20	0x38adaa1f	8.28097e-05
21	0xb9114103	-0.00013852496
22	0xb931e138	-0.00016963936
23	0xb793abc3	-1.7603748e-05
24	0xb93634aa	-0.00017376491
25	0xb8e7b417	-0.00011048483
26	0x36a2717f	4.841189e-06
27	0xb9697c38	-0.00022266887
28	0xb99be679	-0.0002973562
29	0x38f42172	0.00011641056
30	0xb7fbcb9a	-3.0016341e-05
31	0xb936aef1	-0.00017422043
32	0xb914d72e	-0.0001419454
33	0x388d940c	6.75098e-05
34	0x388e15c3	6.775141e-05
35	0x3800571c	3.0598705e-05
36	0x380a3650	3.2952346e-05
37	0x376b7255	1.40337115e-05
38	0xb85a95ee	-5.2114883e-05
39	0xb922a41f	-0.00015510664
40	0x3829b9ee	4.04659e-05
41	0xb857cd8d	-5.145143e-05
42	0x38aa3227	8.115573e-05
43	0xb898661d	-7.266945e-05
44	0x3952a5ed	0.00020088973
45	0x395819ac	0.00020608929
46	0x38edda29	0.00011341676
47	0xb900cf92	-0.00012284357
48	0xb79fbf31	-1.9043307e-05
49	0xb937c111	-0.00017524163
50	0x390958e8	0.00013098458
51	0xb9193a6f	-0.00014612985
52	0x38c15460	9.218673e-05
53	0xb6121c30	-2.1772103e-06
54	0x38e93cf7	0.000111216614
55	0xb8f7d5a3	-0.00011817671
56	0x3931b116	0.00016946005
57	0xb864937c	-5.449679e-05
58	0x38a2726a	7.746073e-05
59	0x39a089ba	0.00030620192
60	0x38b5698a	8.650411e-05
61	0xb8d82c6f	-0.00010307959
62	0xb944bfc5	-0.00018763456
63	0xb83d113b	-4.507716e-05
64	0xb8e26e61	-0.000107970794
65	0xb8cbd58b	-9.71957e-05
66	0xb790c7ae	-1.725912e-05
67	0xb9650937	-0.00021842575
68	0xb973fc3a	-0.00023268248
69	0x378690f4	1.6041544e-05
70	0xb80a9630	-3.3041637e-05
71	0xb9428ffd	-0.00018554922
72	0xb8e97ed0	-0.000111339265
73	0x38a74415	7.975862e-05
74	0x38468318	4.732897e-05
75	0x383640a5	4.3452386e-05
76	0x3615c91e	2.2319796e-06
77	0x37587add	1.290321e-05
78	0xb6b7166b	-5.456435e-06
79	0xb917e65b	-0.00014486296
80	0x38476504	4.7539375e-05
81	0x389dce8d	7.5248165e-05
82	0x36c12259	5.755847e-06
83	0xb7c21e88	-2.314082e-05
84	0x38f14a91	0.000115056646
85	0xb7a5c299	-1.976015e-05
86	0x376f10d6	1.424943e-05
87	0x387804a8	5.9132144e-05
88	0xb88d8707	-6.748555e-05
89	0xb8381f11	-4.389795e-05
90	0x381b9ee7	3.710287e-05
91	0xb799cc81	-1.833425e-05
92	0x37b79e2a	2.188895e-05
93	0x388c5042	6.6906694e-05
94	0xb76af50b	-1.400454e-05
95	0xb7d7475b	-2.5663225e-05
96	0x38b8e112	8.815726e-05
97	0xb84964ce	-4.8016016e-05
98	0x3713b629	8.804295e-06
99	0x37578fcb	1.2848478e-05
100	0x371c670f	9.32232e-06
101	0x3803856a	3.1357085e-05
102	0xb887dfd5	-6.4789936e-05
103	0xb7acdf6e	-2.060804e-05
104	0x3891bcb5	6.949288e-05
105	0x37fcdd7d	3.014388e-05
106	0xb8837aee	-6.269464e-05
107	0xb79a4508	-1.8390376e-05
108	0x38be4314	9.0724e-05
109	0xb90d501a	-0.00013476648
110	0xb7d00343	-2.4797051e-05
111	0xb8814946	-6.1648476e-05
112	0x37cad0c0	2.4177483e-05
113	0x37d733af	2.5654064e-05
114	0xb7edd814	-2.835322e-05
115	0x37b45fd3	2.1502294e-05
116	0xb66dab12	-3.5415328e-06
117	0x378a0b0f	1.6456032e-05
118	0x38ca657b	9.651013e-05
119	0x37a411ed	1.955867e-05
120	0xb7891504	-1.6341459e-05
121	0xb78c56eb	-1.6729775e-05
122	0xb8ccac8b	-9.759617e-05
123	0x388b16e2	6.632299e-05
124	0xb9326da0	-0.00017016241
125	0xb903bac9	-0.00012562716
126	0xb89b8f04	-7.417615e-05
127	0x39257c4b	0.00015781929
128	0x387f2acb	6.083659e-05
129	0x3960b2d5	0.00021428925
130	0xb90dad51	-0.00013511373
131	0x3907b6fe	0.00012942773
132	0xb9055be6	-0.00012718103
133	0xb7eb4fd8	-2.8051363e-05
134	0xb894db42	-7.09803e-05
135	0x38c4fa85	9.392671e-05
136	0xb9429997	-0.00018558498
137	0x3881247e	6.1579965e-05
138	0xb8cbd858	-9.7200915e-05
139	0xb98368ab	-0.0002506425
140	0xb83d0b5f	-4.50717e-05
141	0x38825657	6.214965e-05
142	0x394201c1	0.00018501935
143	0x38130c0d	3.5058754e-05
144	0x3906e717	0.00012865324
145	0x37c3bb47	2.333302e-05
146	0x38a3e31e	7.8147496e-05
147	0x3949bbc6	0.00019238805
148	0x39732eb3	0.00023191683
149	0x383cdbb4	4.5027307e-05
150	0x388225b0	6.205903e-05
151	0x393c9c49	0.00017987298
152	0x38f3ae83	0.00011619648
153	0xb9030345	-0.00012494352
154	0xb7d7d61a	-2.5729696e-05
155	0xb875a5ae	-5.8566853e-05
156	0xb814523c	-3.5362536e-05
157	0xb8737bba	-5.8050944e-05
158	0xb7855fee	-1.5899506e-05
159	0x38daec68	0.00010439084
160	0x37fcbea0	3.0129508e-05
161	0xb6e2cdd3	-6.759286e-06
162	0x3789847e	1.639337e-05
163	0xb7b03893	-2.100718e-05
164	0x3716d78c	8.990883e-06
165	0x37ec8d78	2.8199269e-05
166	0x37989f01	1.8193854e-05
167	0xb7c2e712	-2.3234203e-05
168	0xb731756a	-1.057736e-05
169	0xb6f16ab2	-7.1947807e-06
170	0x378ed91e	1.7028822e-05
171	0xb82e6500	-4.1578896e-05
172	0x37b4c729	2.1550413e-05
173	0x3787641c	1.6139871e-05
174	0x37846b12	1.5785485e-05
175	0xb7ad80ea	-2.0683237e-05
176	0x37d3f863	2.5268824e-05
177	0xb726df4b	-9.9463605e-06
178	0x36167214	2.2418144e-06
179	0x3774b491	1.4585575e-05
180	0x380d3a21	3.3671156e-05
181	0xb7f95064	-2.9720548e-05
182	0xb7944f1f	-1.7679818e-05
183	0xb7a6ab4a	-1.9868505e-05
184	0xb6b1a03c	-5.293665e-06
185	0xb59b32c9	-1.156318e-06
186	0x37e94676	2.7808575e-05
187	0xb795c65e	-1.7854556e-05
188	0xb673ea77	-3.6346298e-06
189	0xb7228e1e	-9.689042e-06
190	0x37082375	8.114487e-06
191	0x36afc4c6	5.238314e-06
192	0x3663edf7	3.396415e-06
193	0xb781a3d1	-1.5454281e-05
194	0x36da0a1c	6.498083e-06
195	0xb4c72e4e	-3.710033e-07
196	0x37ceae98	2.4638415e-05
197	0x35a8e9ac	1.2584983e-06
198	0xb7f6562b	-2.936561e-05
199	0xb836ebc8	-4.361177e-05
200	0x3776ea78	1.4717334e-05
201	0xb85a7fc7	-5.2094252e-05
202	0x36fbffe1	7.510171e-06
203	0xb744a919	-1.17218815e-05
204	0x3817ebcb	3.6220805e-05
205	0x3875ddbf	5.861907e-05
206	0x37debf1a	2.655345e-05
207	0xb7211819	-9.6019585e-06
208	0x3786228c	1.5990132e-05
209	0xb7a79ea5	-1.9981826e-05
210	0x378d9389	1.6877211e-05
211	0xb84e7b63	-4.922914e-05
212	0x361e51fc	2.3591556e-06
213	0x362aa660	2.5428817e-06
214	0x37d80dc2	2.5755613e-05
215	0xb82bbea0	-4.094711e-05
216	0x3736f7fe	1.09057855e-05
217	0xb676ded2	-3.6786555e-06
218	0xb738faad	-1.102562e-05
219	0x38a3c31c	7.8087876e-05
220	0x384427bb	4.6767043e-05
221	0xb87864b7	-5.9221606e-05
222	0xb7b50410	-2.1578773e-05
223	0xb6b84a50	-5.4922784e-06
224	0xb7057f46	-7.957051e-06
225	0xb88a2761	-6.587688e-05
226	0x381e11e0	3.7686783e-05
227	0xb7ee3568	-2.839668e-05
228	0xb835462a	-4.321911e-05
229	0x3829b861	4.0464456e-05
230	0x38112aaf	3.4610446e-05
231	0xb7892f99	-1.6353837e-05
232	0xb6dba9f9	-6.546496e-06
233	0xb7435050	-1.1641605e-05
234	0x381a1834	3.6739002e-05
235	0xb75d85c9	-1.3203776e-05
236	0xb78d0425	-1.681044e-05
237	0xb7514bb6	-1.2474999e-05
238	0xb7d61a2a	-2.5522972e-05
239	0xb88f231f	-6.825313e-05
240	0xb69d0599	-4.6796163e-06
241	0xb40f4793	-1.3343951e-07
242	0x380695f5	3.2087748e-05
243	0xb7d9fefc	-2.5987152e-05
244	0x3897eb43	7.244062e-05
245	0x3839b2f5	4.4274104e-05
246	0x37db67df	2.6155203e-05
247	0xb856989b	-5.11637e-05
248	0xb7986cea	-1.8170529e-05
249	0xb8b4da10	-8.623686e-05
250	0x382c7869	4.1120136e-05
251	0xb81630a0	-3.5808072e-05
252	0x38263f4f	3.9636445e-05
253	0x37243464	9.78736e-06
254	0x368a242c	4.1169314e-06
255	0xb815a779	-3.568034e-05

exp_avg_sq f4 [40, 40]
0	0x3307e4e6	3.164032e-08
1	0x334a3d4f	4.708755e-08
2	0x32be5860	2.21591e-08
3	0x3369e3c4	5.445669e-08
4	0x33bd0847	8.802504e-08
5	0x3368393e	5.406877e-08
6	0x336d640d	5.5271858e-08
7	0x335e56e7	5.176744e-08
8	0x32e299a9	2.637974e-08
9	0x33557dae	4.9707232e-08
10	0x32d60819	2.4916561e-08
11	0x3329785f	3.9457856e-08
12	0x32b968cb	2.1584489e-08
13	0x3301e374	3.024202e-08
14	0x32fe91ad	2.9635737e-08
15	0x3384e518	6.188401e-08
16	0x32e278d2	2.6364805e-08
17	0x330bd1fc	3.255444e-08
18	0x32fcd0f4	2.9431682e-08
19	0x33b17faa	8.265427e-08
20	0x3316ef9c	3.514252e-08
21	0x33461e2a	4.61279e-08
22	0x33224157	3.777799e-08
23	0x33040de9	3.0746296e-08
24	0x335b6835	5.1084687e-08
25	0x3315a414	3.4840994e-08
26	0x33480954	4.6574613e-08
27	0x3313f84b	3.4451926e-08
28	0x332f0b98	4.0755907e-08
29	0x3335e6f6	4.2352404e-08
30	0x33243108	3.822882e-08
31	0x3342ea05	4.5381984e-08
32	0x330dc72f	3.3010277e-08
33	0x332f107a	4.0760348e-08
34	0x33036651	3.059387e-08
35	0x330fc865	3.347704e-08
36	0x32e95bf1	2.716658e-08
37	0x32ac3832	2.004899e-08
38	0x3326eb46	3.8863867e-08
39	0x33793b72	5.8028895e-08
40	0x32ce7585	2.4034998e-08
41	0x33102e93	3.356997e-08
42	0x32890d31	1.5954898e-08
43	0x3308f3fd	3.1886874e-08
44	0x33687625	5.412416e-08
45	0x33830860	6.101686e-08
46	0x331e8f4b	3.6917566e-08
47	0x33534c70	4.9196785e-08
48	0x32b7aff7	2.1384023e-08
49	0x3314186f	3.4481157e-08
50	0x32ab01a2	1.9907763e-08
51	0x333c6df0	4.387215e-08
52	0x329da008	1.834998e-08
53	0x32bed1d2	2.2214326e-08
54	0x32d8b995	2.5230102e-08
55	0x3324307c	3.8228322e-08
56	0x3328f1eb	3.933557e-08
57	0x32e41093	2.655023e-08
58	0x32d02537	2.423131e-08
59	0x33942f1c	6.900356e-08
60	0x332c6943	4.0142606e-08
61	0x3348fc2c	4.6795478e-08
62	0x3304eaad	3.094708e-08
63	0x32caef08	2.3624594e-08
64	0x33361e7b	4.24029e-08
65	0x32e5c530	2.674878e-08
66	0x33216b90	3.758356e-08
67	0x32cee758	2.408676e-08
68	0x33120cfb	3.400508e-08
69	0x330acb10	3.2315313e-08
70	0x32f930d8	2.9009627e-08
71	0x331ee3ac	3.6994308e-08
72	0x32cec0ef	2.4069292e-08
73	0x331accf7	3.6042334e-08
74	0x32ce37d2	2.400694e-08
75	0x32f58364	2.8581503e-08
76	0x32c9e9eb	2.3505853e-08
77	0x3286daba	1.5699118e-08
78	0x330ce09f	3.2800582e-08
79	0x339868b8	7.0971e-08
80	0x3310e5e0	3.3736683e-08
81	0x33355ece	4.222857e-08
82	0x328781cb	1.5775091e-08
83	0x3339360a	4.3122817e-08
84	0x33a3d310	7.628671e-08
85	0x33534704	4.9191854e-08
86	0x32f41bc8	2.8417972e-08
87	0x334d2d77	4.7771632e-08
88	0x32f5a8d2	2.8598524e-08
89	0x332e563a	4.0590955e-08
90	0x3294e717	1.7334555e-08
91	0x338e9fe7	6.641476e-08
92	0x32cb45f0	2.3664114e-08
93	0x32dcb26a	2.5692504e-08
94	0x33056f62	3.1067778e-08
95	0x32ee8a57	2.7769756e-08
96	0x3326e12b	3.8854676e-08
97	0x32d0b33d	2.4295895e-08
98	0x32dfc34f	2.6049433e-08
99	0x33b4fc0f	8.4277524e-08
100	0x3393f0f8	6.889053e-08
101	0x3321901d	3.7616804e-08
102	0x33000777	2.980911e-08
103	0x32b219af	2.0733607e-08
104	0x331a6e6b	3.5956344e-08
105	0x33123f80	3.4051027e-08
106	0x333608ab	4.238306e-08
107	0x328df004	1.6523707e-08
108	0x330ac8cb	3.231325e-08
109	0x332b5b6c	3.9897188e-08
110	0x330b06a5	3.2369503e-08
111	0x3368f397	5.4238253e-08
112	0x32d19807	2.4399936e-08
113	0x333325f3	4.17112e-08
114	0x32d53ca3	2.4824038e-08
115	0x32ab0b6e	1.9912218e-08
116	0x330de780	3.303967e-08
117	0x32915d54	1.6922662e-08
118	0x32eda62a	2.7665994e-08
119	0x339e8a67	7.3826236e-08
120	0x331b571b	3.616797e-08
121	0x3365da19	5.3516576e-08
122	0x32dbccae	2.5588033e-08
123	0x33687887	5.412633e-08
124	0x33c15a53	9.003693e-08
125	0x338c3509	6.528905e-08
126	0x338cc476	6.554994e-08
127	0x339bcd76	7.255123e-08
128	0x3316aed9	3.508362e-08
129	0x3384efd1	6.190351e-08
130	0x32e17acd	2.624929e-08
131	0x339806b8	7.079274e-08
132	0x3300cde3	2.9989575e-08
133	0x332a7b81	3.9693536e-08
134	0x333551f0	4.2216868e-08
135	0x339c7515	7.285613e-08
136	0x335d14ba	5.1474423e-08
137	0x332177fd	3.7594862e-08
138	0x3323f43f	3.8173535e-08
139	0x33e270bb	1.0544451e-07
140	0x33929b47	6.8268996e-08
141	0x33812070	6.012931e-08
142	0x330733c9	3.1479235e-08
143	0x32dee7cb	2.5949609e-08
144	0x3381400c	6.018681e-08
145	0x3342b338	4.5332143e-08
146	0x337d4a2c	5.897361e-08
147	0x331820cc	3.5420086e-08
148	0x334b31e3	4.7309992e-08
149	0x337266ac	5.6438395e-08
150	0x3342dd9b	4.5370694e-08
151	0x33723fd6	5.6403074e-08
152	0x3330d2f1	4.1170043e-08
153	0x33704343	5.594053e-08
154	0x3311ea3e	3.3973485e-08
155	0x33556942	4.968866e-08
156	0x332e39ee	4.056522e-08
157	0x32c4673c	2.2864349e-08
158	0x334331fc	4.5447436e-08
159	0x33bfd0f0	8.932136e-08
160	0x31b20262	5.1807527e-09
161	0x31c2b4f7	5.6667164e-09
162	0x315c68cf	3.207379e-09
163	0x32221dd5	9.436424e-09
164	0x3286e85a	1.5705314e-08
165	0x322976d0	9.8641095e-09
166	0x3256a786	1.249453e-08
167	0x321dec42	9.192322e-09
168	0x31a061b8	4.667722e-09
169	0x31dc7509	6.416148e-09
170	0x3166b757	3.3573622e-09
171	0x31dbbd9a	6.395294e-09
172	0x31936624	4.289875e-09
173	0x31acbc85	5.027291e-09
174	0x31da8d6d	6.3607133e-09
175	0x32666a6e	1.3411961e-08
176	0x31ff05b1	7.422124e-09
177	0x31a73fe3	4.8676028e-09
178	0x31acf86e	5.034102e-09
179	0x31f038d2	6.991379e-09
180	0x31af1696	5.095738e-09
181	0x3216f107	8.785952e-09
182	0x31ac997e	5.023309e-09
183	0x318ae617	4.042487e-09
184	0x32015bb3	7.529638e-09
185	0x31b66164	5.307969e-09
186	0x32131b10	8.5626795e-09
187	0x31f54869	7.1386705e-09
188	0x31b933dd	5.390105e-09
189	0x31e2d246	6.601371e-09
190	0x31d3cdb9	6.164296e-09
191	0x31dcfc53	6.4315286e-09
192	0x31e34256	6.614111e-09
193	0x31cbd3bf	5.9321503e-09
194	0x31b3f61e	5.237566e-09
195	0x321d7fdc	9.167675e-09
196	0x31b45204	5.2480136e-09
197	0x313e8f48	2.7730085e-09
198	0x3210807b	8.411116e-09
199	0x3225aa68	9.64301e-09
200	0x31e1246f	6.552504e-09
201	0x3252bb0d	1.2266139e-08
202	0x31a5a0f9	4.8204325e-09
203	0x322940a2	9.8517905e-09
204	0x329ffb0e	1.8624203e-08
205	0x328d3ee6	1.6443163e-08
206	0x322ccfa1	1.0058927e-08
207	0x32207672	9.340157e-09
208	0x3159702d	3.164142e-09
209	0x32277b5e	9.74873e-09
210	0x31f5c30b	7.1526123e-09
211	0x323c5e2f	1.0964455e-08
212	0x319e7197	4.611319e-09
213	0x31c55d4d	5.7440617e-09
214	0x31abcfa6	5.000362e-09
215	0x323424a1	1.0485707e-08
216	0x3235eb1c	1.0589044e-08
217	0x32179590	8.823363e-09
218	0x320c4eb6	8.166969e-09
219	0x32b313fd	2.0847432e-08
220	0x3255bacc	1.24407045e-08
221	0x32220144	9.429929e-09
222	0x32880ed1	1.5839221e-08
223	0x327385b6	1.4174864e-08
224	0x321698ae	8.7658645e-09
225	0x31ec6702	6.8802146e-09
226	0x320d18d3	8.212925e-09
227	0x31c9dab8	5.8747354e-09
228	0x31cb8293	5.922922e-09
229	0x31fad679	7.3003403e-09
230	0x3203a54d	7.662789e-09
231	0x321b10aa	9.025976e-09
232	0x31b40e6f	5.2403304e-09
233	0x32252e69	9.6148165e-09
234	0x32024d1b	7.584528e-09
235	0x32301c0b	1.02509246e-08
236	0x31e119bb	6.551287e-09
237	0x31c99e5e	5.867874e-09
238	0x31cec654	6.0179364e-09
239	0x3289a1ae	1.6022422e-08
240	0x320020af	7.458012e-09
241	0x320728b1	7.867286e-09
242	0x3197680e	4.406508e-09
243	0x323ff36d	1.1173012e-08
244	0x3299877a	1.7873152e-08
245	0x3229091d	9.839167e-09
246	0x322f1365	1.01907505e-08
247	0x322eb376	1.0168938e-08
248	0x31b4c3bb	5.2609415e-09
249	0x3234c46f	1.0522043e-08
250	0x31952b27	4.3413766e-09
251	0x32385715	1.073001e-08
252	0x31b3b811	5.2305116e-09
253	0x31cfe29d	6.050256e-09
254	0x31c81ef9	5.8242873e-09
255	0x3218d570	8.8960945e-09

exp_avg f4 [40]
0	0x394b2e1a	0.00019376763
1	0x39547b71	0.00020263881
2	0x37accaa2	2.0598356e-05
3	0xb93dc1b8	-0.0001809661
4	0x37d3d923	2.5254272e-05
5	0x382f33e9	4.1771596e-05
6	0x3886a0b3	6.4195505e-05
7	0x38e82297	0.00011069065
8	0xb9441d8a	-0.00018703021
9	0x3890fc6d	6.913473e-05
10	0xb953006b	-0.00020122684
11	0x368daf49	4.2225333e-06
12	0x3879929e	5.9502774e-05
13	0xb82f5d01	-4.1809868e-05
14	0x37e564ca	2.734586e-05
15	0x38ad7e21	8.272776e-05
16	0xb80a9f65	-3.305021e-05
17	0xb8289e4e	-4.0201754e-05
18	0x386e90c3	5.687844e-05
19	0xb71d5b72	-9.3792205e-06
20	0xb6add5b1	-5.1806787e-06
21	0x368ed838	4.257101e-06
22	0xb7b6751d	-2.1750626e-05
23	0xb6934c5c	-4.389831e-06
24	0x3798e36d	1.8225715e-05
25	0xb653da01	-3.1568345e-06
26	0x37bdac8c	2.2610904e-05
27	0xb8ae8d9c	-8.323343e-05
28	0x373af7e5	1.1144181e-05
29	0xb866a59e	-5.4990516e-05
30	0xb6900ead	-4.293243e-06
31	0x3657d9a9	3.2164191e-06
32	0x38b479e4	8.605773e-05
33	0xb85791f6	-5.139593e-05
34	0xb68192a7	-3.861572e-06
35	0xb8972ac9	-7.2082104e-05
36	0xb8039abf	-3.1376952e-05
37	0xb7987fee	-1.8179384e-05
38	0x39088b64	0.00013021898
39	0x380047bf	3.0584397e-05
